osu_nn.pth (torch, 149758 bytes, 6 tensors)

fc1.weight f4 [64, 2]
0	0x3f0cce34	0.5500214
1	0xbd9bdd3d	-0.07610557
2	0x3f2602ad	0.6484783
3	0xbd653f1d	-0.055968393
4	0x3f043602	0.5164491
5	0x3d3bccc1	0.045849565
6	0x3edb44dd	0.42825976
7	0xbefb1bd5	-0.49044672
8	0x3f0844e5	0.53230125
9	0x3d04ea9d	0.032450307
10	0x3f33d0b3	0.70240325
11	0xbe4ac2a2	-0.19800809
12	0xbe7f1c8a	-0.2491323
13	0xbf1466da	-0.5796944
14	0x3e0ad75d	0.13558717
15	0x3f09b13d	0.5378607
16	0x3ce447bd	0.027866239
17	0xbeebed38	-0.4607942
18	0xbf0e5ee0	-0.5561352
19	0xbe518f70	-0.20464873
20	0x3f250f5d	0.6447657
21	0xbdebff42	-0.11523296
22	0xbd376dd0	-0.04478246
23	0xbed8467e	-0.4224128
24	0x3ddd98c7	0.108201556
25	0xbf0be09d	-0.5463961
26	0xbf105106	-0.5637363
27	0xbebbc1b7	-0.3667123
28	0xbd7d1300	-0.061785698
29	0x3ee09e1e	0.43870634
30	0xbe44cba8	-0.19218314
31	0xbf1d7c39	-0.61517674
32	0x3e87585a	0.26434594
33	0x3f053cbe	0.5204581
34	0xbf1f927a	-0.6233288
35	0x3c3ba0c0	0.0114519
36	0xbf2b896d	-0.6700657
37	0x3e992e36	0.2991807
38	0xbeacb1aa	-0.33729297
39	0x3f1a06a3	0.60166377
40	0xbed55f37	-0.41674206
41	0xbf1a3dad	-0.6025036
42	0xbf314b77	-0.69255775
43	0xbcb38360	-0.02191323
44	0xbd645c10	-0.05575186
45	0xbef563a2	-0.47927576
46	0x3ed61473	0.41812477
47	0x3eff0471	0.49808076
48	0x3eb0338b	0.34414324
49	0xbe1af150	-0.15131116
50	0xbee29b6d	-0.44259205
51	0xbf1d35a2	-0.6140996
52	0xbe2413cc	-0.16023177
53	0xbf10d259	-0.56570965
54	0xbdd8d0c0	-0.10586691
55	0x3bf8e280	0.0075953603
56	0x3efb4697	0.49077293
57	0x3f222da0	0.6335087
58	0xbe686a3e	-0.22696778
59	0xbd6dadf0	-0.058027208
60	0xbe6ec4a6	-0.23317203
61	0xbe986c98	-0.2977035
62	0x3f01e1f9	0.5073543
63	0xbdd9a0b7	-0.10626357
64	0xbf055ccb	-0.52094716
65	0x3e12276c	0.14272851
66	0xbf0a4a27	-0.540194
67	0xbe102a28	-0.14078581
68	0x3e71be21	0.23607685
69	0x3e963e5f	0.2934446
70	0x3e788319	0.2426876
71	0x3e0d44d4	0.13795787
72	0x3f2b2932	0.66859734
73	0x3f2d77f2	0.6776115
74	0x3e4cf715	0.2001613
75	0x3f2e0c23	0.6798727
76	0xbf34f4db	-0.7068612
77	0x3f06ff1d	0.5273302
78	0x3f135857	0.5755667
79	0xbf1a8d66	-0.60372007
80	0xbec3ea0e	-0.38264507
81	0x3dce7dd8	0.100825965
82	0x3ebf7194	0.3739134
83	0xbe1ee1bd	-0.155158
84	0x3ed4ab0a	0.41536742
85	0x3e8fee82	0.28111655
86	0xbee0d996	-0.43916005
87	0xbe81e0cd	-0.25366822
88	0xbf2bf2f6	-0.67167604
89	0x3e78c3b8	0.24293411
90	0xbf14f2b6	-0.5818285
91	0xbc136e40	-0.008998454
92	0xbe80013d	-0.25000945
93	0x3f1724dd	0.59040624
94	0x3ee81a3b	0.45332512
95	0x3e388775	0.18020423
96	0xbea758b4	-0.32684863
97	0x3eae772e	0.34075302
98	0xbee630b0	-0.4495902
99	0x3e27b6e8	0.16378367
100	0x3e015e25	0.1263357
101	0xbdc0a14b	-0.09405764
102	0x3e9c32df	0.30507562
103	0x3f22a296	0.63529336
104	0xbf212a59	-0.6295524
105	0x3ec84ab2	0.39119488
106	0xbcaf4400	-0.02139473
107	0x3e4572f4	0.19282132
108	0x3f2174e2	0.63068974
109	0xbd1db5ca	-0.038503446
110	0x3f0187aa	0.5059763
111	0x3db3f11a	0.08786221
112	0xbe1f2b6c	-0.15543908
113	0x3f0f5737	0.55992454
114	0xbef19693	-0.47185192
115	0xbd249b20	-0.040187
116	0x3e73a559	0.23793544
117	0x3cf619d6	0.030041616
118	0xbe1c822c	-0.15284032
119	0xbf2c0521	-0.67195326
120	0xbec86361	-0.3913832
121	0xbe827bfa	-0.25485212
122	0xbef67adf	-0.48140618
123	0x3f1915f3	0.59799117
124	0x3f318635	0.6934541
125	0x3cd51e96	0.026015561
126	0x3ea4f364	0.32216942
127	0x3f02b01d	0.5104998

fc1.bias f4 [64]
0	0xbe5379bf	-0.20651911
1	0x3e719607	0.23592387
2	0xbe8dbd32	-0.27683407
3	0x3ea2c6f4	0.31792414
4	0xbe9e98a8	-0.30975842
5	0x3e83ccf6	0.2574231
6	0x3ed330fe	0.41248316
7	0xbee08b89	-0.43856457
8	0xbe3adbfe	-0.18247983
9	0x3e7d5f8c	0.2474348
10	0xbe8a990e	-0.27069896
11	0x3eb9ac26	0.3626415
12	0xbef1be06	-0.4721529
13	0xbf072067	-0.5278382
14	0x3e1da114	0.15393478
15	0xbee7f60e	-0.45304912
16	0xbcf8cf05	-0.030372152
17	0xbed28ebd	-0.41124526
18	0x3f0946a1	0.53623396
19	0xbe3bb410	-0.18330407
20	0xbf28e905	-0.6598056
21	0x3f0ad357	0.5422873
22	0xbe2fc4d4	-0.17164928
23	0xbf19d034	-0.6008332
24	0x3f26e1ae	0.6518811
25	0x3f20b0b3	0.6276962
26	0xbd32ad90	-0.043622553
27	0x3f27079b	0.6524598
28	0xbd09ab1d	-0.033610452
29	0x3e98b6f6	0.29827088
30	0x3e65a0dc	0.22424644
31	0xbf0a84d6	-0.5410894
32	0x3f00822f	0.50198644
33	0xbf30e932	-0.6910583
34	0xbeac5150	-0.33655787
35	0xbec4ef19	-0.38463667
36	0xbd730667	-0.059332278
37	0xbf17bad9	-0.5926948
38	0x3ea11baa	0.31466419
39	0xbed828f0	-0.42218733
40	0xbeb637b6	-0.3558938
41	0x3ef98395	0.48733202
42	0x3e04ff85	0.12988098
43	0xbef3e91e	-0.47638792
44	0xbea47ae2	-0.32125002
45	0xbf34c98b	-0.7062003
46	0xbeeec192	-0.46632057
47	0x3eefe043	0.46850786
48	0xbeeda994	-0.4641844
49	0xbe79f788	-0.24410832
50	0x3e0eb407	0.13935862
51	0x3f2d129c	0.6760652
52	0xbeac38b1	-0.33637002
53	0x3edc3532	0.43009335
54	0xbef609c1	-0.48054317
55	0x3f107842	0.564335
56	0x3e53f294	0.20698005
57	0x3b160400	0.0022890568
58	0xbf1739b6	-0.59072435
59	0x3dd8bcd0	0.10582888
60	0x3ec65c72	0.38742405
61	0xbda8dc90	-0.08245194
62	0x3e53a1ce	0.20667192
63	0x3f07bf1f	0.53026

fc2.weight f4 [128, 64]
0	0x3bfbc4ac	0.007683357
1	0xbdd6a717	-0.104810886
2	0xbafa9e05	-0.001912058
3	0xbcfd5425	-0.030923912
4	0x3d73f655	0.059561092
5	0x3deb48a1	0.11488462
6	0xbdef78a2	-0.11692931
7	0x3d61915f	0.055070277
8	0x3df3d4dd	0.11905835
9	0x3dd1631a	0.1022398
10	0xbcad5796	-0.021159928
11	0xbdfd80f0	-0.123781085
12	0xbcd49045	-0.0259477
13	0x3cb509f8	0.02209948
14	0xbda9a0b0	-0.08282602
15	0xbc1af8d0	-0.009458736
16	0x3d683759	0.05669341
17	0xbcfc1858	-0.030773327
18	0xbdd0f854	-0.10203615
19	0x3da6b25a	0.081394866
20	0xbdf2bfa0	-0.11852956
21	0xbdf7cbea	-0.120994404
22	0x3cacc900	0.021091938
23	0x3d8d4766	0.06898384
24	0x3db4d591	0.08829797
25	0x3d4cef8c	0.050033137
26	0x3c77ca20	0.015123874
27	0x3d7d7660	0.06188047
28	0x3dddd273	0.10831156
29	0x39957e00	0.00028513372
30	0x3db6b83e	0.0892186
31	0xbdad8cc0	-0.084741116
32	0x3d8eb1f2	0.06967534
33	0x3d891050	0.066925645
34	0x3c6849ad	0.014177722
35	0x3d5a5f95	0.05331381
36	0xbde9ee9d	-0.11422465
37	0xbbd7993c	-0.0065795463
38	0xbcb5c188	-0.02218701
39	0x3d41c066	0.047302626
40	0x3d9c5d90	0.07635033
41	0x3d250b2f	0.04029387
42	0xbdeb62f6	-0.11493485
43	0xbcadb0e8	-0.02120252
44	0xbb198f00	-0.0023431182
45	0xbdb2a65a	-0.08723135
46	0xbde09a40	-0.10966921
47	0xbdfd4498	-0.12366599
48	0x3da5fb8c	0.081046194
49	0xbda31c7e	-0.07964419
50	0xbdc642d2	-0.09680714
51	0x3cbace44	0.022803433
52	0xbda679e2	-0.08128716
53	0x3db05656	0.08610217
54	0x3d8593c4	0.06522325
55	0x3d9bec0b	0.07613381
56	0xbcd3e128	-0.025864199
57	0xbda8581a	-0.08219929
58	0xbb08b75b	-0.0020861242
59	0x3db63510	0.088968396
60	0xbdcf2478	-0.10114378
61	0xbd632a38	-0.055460185
62	0xbdeb8099	-0.114991374
63	0xbceeb1b3	-0.029137468
64	0x3b6c6280	0.0036069453
65	0xbadd6080	-0.0016889721
66	0x3def4990	0.11683953
67	0x3d44e9c4	0.0480745
68	0xbc67a720	-0.014138967
69	0xbdc8b74a	-0.098005846
70	0x3db56114	0.08856407
71	0x3d08a728	0.033362538
72	0x3bf4f140	0.0074750483
73	0x3ddd879c	0.10816881
74	0xbda0d7a6	-0.07853632
75	0xbc528e30	-0.012851283
76	0xbc0e9250	-0.008701876
77	0x3ddc3f64	0.10754278
78	0xbd22fe44	-0.039793268
79	0xbcc760f8	-0.02433823
80	0xbddf8492	-0.10913958
81	0xbdf18cf0	-0.1179446
82	0x3d4e180c	0.0503159
83	0xbd2931b8	-0.04130718
84	0x3df17738	0.11790317
85	0xbdb561e0	-0.08856559
86	0x3caff230	0.021477789
87	0xbd41f7e4	-0.047355548
88	0xbd8bb882	-0.068223014
89	0x3d36e6dc	0.04465376
90	0x3c746140	0.014915764
91	0xbd7f73cc	-0.062366292
92	0x3d1f75ec	0.03893082
93	0x3d245fc0	0.040130377
94	0xbc858e80	-0.0163033
95	0x3dfbe074	0.122986704
96	0xbb101ac0	-0.00219886
97	0x3c798430	0.01522927
98	0x3dd9313a	0.10605092
99	0x3cb97338	0.022637948
100	0xbd9a2d84	-0.07528213
101	0xbd83e436	-0.06440012
102	0x3df2225e	0.11822961
103	0x3caed1d0	0.02134028
104	0x3d852858	0.065018356
105	0x3df0078c	0.117201895
106	0x3dd5ce14	0.10439697
107	0x3db3530e	0.08756076
108	0x3c3f9b10	0.011694685
109	0x3bd99f40	0.0066412985
110	0xbd633164	-0.055467024
111	0xbd912f36	-0.07089083
112	0xbdd41b5a	-0.103567794
113	0xbd5902b8	-0.05298111
114	0x3d188024	0.03723158
115	0x3bdaaee0	0.0066736788
116	0x3b92f280	0.0044844747
117	0x3c5d3db0	0.013503477
118	0xbd9dc020	-0.077026606
119	0x3b904680	0.0044029355
120	0x3de0e876	0.109818384
121	0x3d86658e	0.06562339
122	0x3d24e31c	0.04025565
123	0xbdbfb4a6	-0.09360628
124	0x3d571370	0.05250877
125	0xbde71aa6	-0.1128438
126	0xbd09f224	-0.03367819
127	0x3dbce9fe	0.09224318
128	0x3deba011	0.115051396
129	0x3d50e005	0.05099489
130	0x3dc7a2b6	0.097478315
131	0xbd7a8d9f	-0.061170217
132	0xbd844bd8	-0.064597785
133	0xbd122c03	-0.035686504
134	0xbdf1f480	-0.11814213
135	0x3c223c83	0.009902122
136	0xbda42ef2	-0.080167666
137	0xbdbbae16	-0.09164064
138	0x3d02deed	0.03195088
139	0x3dd4a5aa	0.103831604
140	0x3dca6620	0.0988276
141	0x3dee2364	0.11627844
142	0xbb99cfc0	-0.004693955
143	0xbcc66738	-0.02421914
144	0xbcb0a840	-0.021564603
145	0x3ca40b70	0.020024985
146	0xbde052da	-0.10953303
147	0xbd2deda0	-0.042462945
148	0x3cd244b0	0.025667518
149	0x3de558f4	0.11198607
150	0xbd108194	-0.035279825
151	0xbdcd9462	-0.100380674
152	0xbdc51278	-0.09622663
153	0x3d9bf9f2	0.07616033
154	0x3ca8f178	0.020622954
155	0x3d938aca	0.07204206
156	0x3dbc6955	0.09199778
157	0xbdbbeb0c	-0.09175691
158	0x3d8b00bc	0.067872494
159	0x3d88835d	0.066656806
160	0xbd197b80	-0.037471294
161	0x3df86efc	0.121305436
162	0xbd9cdb1e	-0.07658981
163	0xbc8b40c9	-0.016998665
164	0xbd7676c0	-0.060171843
165	0x3db8da56	0.09026019
166	0xbd3872d8	-0.0450314
167	0x3c4d7f36	0.0125425365
168	0xbd764718	-0.060126394
169	0xbd915b45	-0.070974864
170	0x3d8e241c	0.06940481
171	0xbdfe5eb8	-0.1242041
172	0xbb852000	-0.0040626526
173	0x3d208340	0.03918767
174	0xbde41dae	-0.111384735
175	0xbdb6eef4	-0.089322954
176	0x3d88f64a	0.06687601
177	0x3d8f3508	0.06992537
178	0xbb0812e6	-0.0020763217
179	0xbbb31935	-0.0054656514
180	0x3cc68478	0.024233088
181	0x3c51f800	0.012815475
182	0x3df84c33	0.12123909
183	0xbd6bdec5	-0.057585496
184	0x3cad9eb8	0.021193847
185	0xbdbd91d2	-0.09256329
186	0xbdab3bc1	-0.083610065
187	0xbd318168	-0.043336302
188	0xbdd72814	-0.10505691
189	0xbd8a24aa	-0.06745274
190	0x3dd4dbf4	0.10393515
191	0x3dfb062c	0.122570366
192	0x3da52703	0.080640815
193	0x3bd4b7c7	0.0064916345
194	0xbdc5a65b	-0.096508704
195	0x3ce275c9	0.027644055
196	0xbd7805e9	-0.06055251
197	0xbd03d17a	-0.032182194
198	0x3ddcab72	0.10774888
199	0xbd9d3bd7	-0.07677429
200	0xbdc66681	-0.0968752
201	0xbda9acb8	-0.082848966
202	0xbde38ff3	-0.111114405
203	0x3ddc75c8	0.107646525
204	0xbc83f5e4	-0.01610846
205	0xbd1ecdb8	-0.038770407
206	0x3dc7a81e	0.09748863
207	0x3dacbac0	0.08434057
208	0x3dc5dff6	0.09661858
209	0x3d911e9e	0.07085918
210	0xbd8c37ca	-0.068465784
211	0xbd008c1c	-0.03138362
212	0xbd2b1e84	-0.04177715
213	0x3db1fcc6	0.08690791
214	0xbdd40c62	-0.10353924
215	0xbd2e09eb	-0.042489927
216	0x3ddf8516	0.10914056
217	0x3cc527b0	0.024066776
218	0xbd04cd78	-0.032422513
219	0xbc2c79e0	-0.010527104
220	0x3da59791	0.080855496
221	0x3d6c2510	0.057652533
222	0x3de2bd3c	0.1107125
223	0x3dc6bb0c	0.09703645
224	0x3d9bac94	0.07601276
225	0xbbac50e0	-0.0052586645
226	0xbdc2443f	-0.09485673
227	0xbd915867	-0.070969395
228	0x3d9e89b3	0.07741108
229	0x3df43421	0.11924005
230	0xbd0c5658	-0.03426203
231	0xbdc5ba46	-0.096546695
232	0xbdfa3a1a	-0.12218113
233	0xbcf1455b	-0.029452017
234	0xbd92ebdf	-0.07173895
235	0x3d71c120	0.05902207
236	0xbd8a7a72	-0.06761636
237	0xbde357e8	-0.11100751
238	0x3de5ef8c	0.112273306
239	0x3de3bd1c	0.11120054
240	0xbd9fb856	-0.07798831
241	0x3dc6afd8	0.09701508
242	0x3d7fcbf8	0.06245038
243	0x3d5b3e74	0.053526357
244	0xbdc40fe4	-0.095733434
245	0x3d5e0890	0.054207385
246	0x3c9c8158	0.019104645
247	0xbd621b8f	-0.055202063
248	0x3c2e6250	0.010643557
249	0x3d9b85a6	0.07593851
250	0x3d567e33	0.052366447
251	0x3da1a0d4	0.07892004
252	0xbde46324	-0.11151722
253	0xbdbc030e	-0.0918027
254	0xbcf11a57	-0.029431505
255	0x3c95919b	0.018257907

fc2.bias f4 [128]
0	0xbd83207f	-0.064026825
1	0xbd8a3362	-0.06748082
2	0x3d6d4921	0.05793107
3	0xbdc5e49d	-0.09662745
4	0xbc306a40	-0.0107675195
5	0xbda9139d	-0.08255694
6	0x3dd7be24	0.10534313
7	0x3d18755a	0.03722129
8	0xbaf8c180	-0.0018978566
9	0xbe0595ae	-0.1304538
10	0x3bc808c0	0.0061045587
11	0xbdf9409a	-0.12170525
12	0x3d6f5d28	0.05843845
13	0xbc277c90	-0.010222569
14	0xbba3a20a	-0.004993682
15	0x3d2c0484	0.041996494
16	0xbc197570	-0.009366378
17	0x3dc03e37	0.093868665
18	0xbdc58262	-0.09644009
19	0xbdf44da6	-0.11928873
20	0xbd84d09a	-0.064851
21	0x3c3a27e8	0.011362053
22	0xbbfba620	-0.0076797158
23	0xbd961db0	-0.07329881
24	0xbd82a4ff	-0.06379127
25	0xbc953a20	-0.018216193
26	0x3d8150d2	0.063142434
27	0xbd0775cf	-0.033071335
28	0xbdfa66be	-0.12226628
29	0x3d0d15e8	0.03444472
30	0xbcf4f565	-0.02990217
31	0xb93f37df	-0.00018235993
32	0x3cfa06b8	0.030520782
33	0x3d91cd24	0.071192056
34	0x3c8dc8ea	0.017307717
35	0xbde159dc	-0.110034674
36	0x3d60d55c	0.054890975
37	0x3ccc147c	0.024912111
38	0x3d718940	0.058968782
39	0x3d2b7b9c	0.04186593
40	0xbd9b3e26	-0.07580213
41	0x3db736e6	0.08946018
42	0x3daff35a	0.085913375
43	0xbd7ae69e	-0.06125509
44	0xbdb7b96c	-0.08970913
45	0xbd7a12ac	-0.061052963
46	0xbc3f62b2	-0.011681246
47	0xbd7e6373	-0.06210656
48	0xbd8d490c	-0.06898698
49	0xbd9e9d2c	-0.07744822
50	0x3cf67ea5	0.030089686
51	0xbd17f954	-0.037103012
52	0xbdf032f6	-0.1172847
53	0x3d81106a	0.06301959
54	0x3a5d122a	0.00084331876
55	0x3c8fbe20	0.017546713
56	0x3ccff130	0.025383562
57	0xbcdb0190	-0.026734143
58	0xbdd3ec84	-0.10347846
59	0x3d3737d4	0.044730976
60	0xbdfaa161	-0.12237812
61	0xbda560d1	-0.08075107
62	0xbdb15e63	-0.08660581
63	0xbe04b75d	-0.12960573
64	0x3bc89920	0.0061217695
65	0xbd2c9eb9	-0.042143557
66	0x3dffcefe	0.124906525
67	0x3dba48ea	0.090959385
68	0xbdda9987	-0.10673814
69	0xbc012c70	-0.00788413
70	0x3dcc2358	0.09967679
71	0xbda21398	-0.079138935
72	0xbb6096ed	-0.0034269646
73	0xbd2ef2c9	-0.042712007
74	0xbcd5c365	-0.026094148
75	0x3d39b528	0.04533878
76	0x3d8574c9	0.065164156
77	0xbda08ea4	-0.078397065
78	0xbd708774	-0.05872293
79	0xbd52cbec	-0.051464006
80	0x3d87c74e	0.06629811
81	0xbd64f82c	-0.055900738
82	0xbce6e170	-0.028183669
83	0xbc80f17b	-0.015740147
84	0xbdfb4cc5	-0.12270502
85	0x3d08f1f4	0.03343387
86	0x3cd2a4a8	0.02571328
87	0xbc95a97f	-0.018269299
88	0xbda00758	-0.07813901
89	0xbdbf4762	-0.09339787
90	0xbb07cd80	-0.0020721853
91	0x3b838d00	0.0040146112
92	0x3cc1e6dd	0.023669655
93	0x3d8fab48	0.07015091
94	0xbc8ee275	-0.017441968
95	0xbd78d834	-0.060753062
96	0xbde29095	-0.11062733
97	0xbda4885a	-0.080338195
98	0xbc8f8527	-0.017519547
99	0x3d6db04c	0.058029458
100	0xbcdd1218	-0.026986167
101	0xbc60e4de	-0.013726441
102	0x3c456e30	0.0120501965
103	0x3d878d5c	0.06618759
104	0x3c5c0cc0	0.013430774
105	0x3e0b5ef7	0.13610445
106	0x3d232f04	0.03983976
107	0x3dc6ad76	0.09701054
108	0xbdad7cc2	-0.08471061
109	0x3d5220d8	0.051300853
110	0xbdf5c3e4	-0.12000254
111	0xbda61ed6	-0.0811135
112	0x3cdaa725	0.026691029
113	0xbd741b94	-0.059596613
114	0xbdf565b6	-0.119822904
115	0xbde46d4b	-0.111536585
116	0x3d0c0698	0.034185976
117	0xbd73b828	-0.059501797
118	0xbdd14622	-0.10218455
119	0xbdac6122	-0.08416964
120	0xbd91b206	-0.071140334
121	0x3dd1b1a4	0.102389604
122	0xbab35780	-0.0013682693
123	0xbcf6b18a	-0.030113954
124	0xbdcc1bd9	-0.09966249
125	0xbdc77222	-0.09738566
126	0xbddbde70	-0.10735786
127	0xbde1f60a	-0.11033256

out.weight f4 [220, 128]
0	0xbdac55a4	-0.08414772
1	0xbd95d518	-0.07316035
2	0x3dac2b33	0.08406677
3	0x3d9d63a9	0.07685024
4	0x3c93ffb0	0.018066257
5	0x3d26a93a	0.04068873
6	0x3c425210	0.011860386
7	0xbd9e5951	-0.077318795
8	0x3d099124	0.033585683
9	0xbd9f0bf4	-0.07765952
10	0xbda7a862	-0.08186413
11	0x3c750210	0.014954105
12	0x3d9ffe0f	0.0781213
13	0xbc97a1ac	-0.018509708
14	0xbc56fff3	-0.0131225465
15	0xbd860f05	-0.065458335
16	0x3d52ecda	0.05149541
17	0xbcfe56e1	-0.031047286
18	0xbd1d6707	-0.038428333
19	0x3daa12f1	0.08304394
20	0x3db2b191	0.08725274
21	0xbd1b80cf	-0.03796464
22	0x3c226698	0.009912156
23	0xbc984260	-0.018586338
24	0x3d9cfaff	0.07665061
25	0xbd360319	-0.044436548
26	0x3c3c0898	0.011476658
27	0x3c83abfd	0.016073221
28	0xbcb3a7bc	-0.021930568
29	0xbda1d71a	-0.079023555
30	0x3da99b29	0.082815476
31	0xbd52ecc0	-0.051495314
32	0xbd49d0f4	-0.04927154
33	0xbcebf54e	-0.028803494
34	0x3c002af0	0.007822737
35	0xbd8c555a	-0.06852217
36	0x3d9b5aff	0.075857155
37	0x3d56fcc2	0.052487142
38	0xbdad5518	-0.08463496
39	0xbd780d70	-0.06055969
40	0x3d3f2b3a	0.046672083
41	0xbb0468c0	-0.0020204037
42	0xbc295cc8	-0.010337062
43	0x3d99ec0b	0.07515725
44	0xbcfa371a	-0.030543853
45	0xbc8405f0	-0.016116112
46	0x3da8c1a7	0.08240061
47	0xbd235c6a	-0.039883055
48	0x3dacc60d	0.08436213
49	0xbd2e70bc	-0.04258798
50	0x3d6bac22	0.057537206
51	0xbd880f69	-0.06643564
52	0x3da47295	0.08029667
53	0xbda9ccea	-0.082910374
54	0xbd66adc7	-0.05631807
55	0xbd521c3e	-0.051296465
56	0xbd934fb0	-0.071929336
57	0xbd266493	-0.04062326
58	0x3bdce9a0	0.0067417175
59	0xbd34c4a0	-0.04413283
60	0xbdafafd3	-0.08578458
61	0xbd4eeac3	-0.050516855
62	0xbcc9493d	-0.024571056
63	0xbda2aff4	-0.07943717
64	0x3da405b9	0.08008904
65	0x3d05dd3c	0.03268169
66	0x3d0661be	0.032808058
67	0xbd4aaa72	-0.049478956
68	0x3c40a602	0.011758329
69	0x3d75202a	0.059845127
70	0xbcf5d156	-0.030007046
71	0xbd2e4246	-0.042543672
72	0x3da73d43	0.081659816
73	0xbd4d7fd6	-0.050170742
74	0x3cd8bf15	0.026458303
75	0x3d915fbd	0.07098339
76	0xbc594268	-0.013260461
77	0x3d95a32d	0.07306514
78	0xbd9c653b	-0.07636496
79	0xbc9b7c78	-0.01898025
80	0xbd71f4e8	-0.05907145
81	0x3d4b36e6	0.049612902
82	0xbd916356	-0.07099025
83	0x3c459c38	0.012061171
84	0xbd44bf9d	-0.0480343
85	0x3c96a8ac	0.018390976
86	0x3cf8142c	0.030283056
87	0xbcabbc20	-0.020963728
88	0x3a039cc1	0.00050206116
89	0xbd243295	-0.0400873
90	0xbd9ed46f	-0.07755362
91	0x3d5f919a	0.054582216
92	0xbc487adc	-0.012236323
93	0x3d4226da	0.047400333
94	0xbd8d76d0	-0.06907427
95	0x3cf3d5f8	0.029765114
96	0xbccf0f8c	-0.025275968
97	0xbd29ccea	-0.041455187
98	0xbc4542e8	-0.0120398775
99	0xbc586848	-0.013208456
100	0xbc020f38	-0.007938199
101	0xbc6be54a	-0.0143979285
102	0x3d1124dc	0.035435542
103	0xbd92b0d5	-0.07162634
104	0xbc6b7738	-0.014371686
105	0x3ccadd9c	0.024763875
106	0xbd4e4ded	-0.050367285
107	0x3c8729ec	0.016499482
108	0x3d8c9db7	0.06866019
109	0xbc2ee7e8	-0.010675408
110	0xbd5dbd65	-0.0541357
111	0x3cb45989	0.02201535
112	0xbc1bf1c4	-0.009518091
113	0xbc954490	-0.01822117
114	0x3d81d361	0.063391455
115	0xbd0fea44	-0.035135522
116	0xbd86bd30	-0.065790534
117	0x3da9d299	0.082921214
118	0xbc449f2d	-0.012000841
119	0x3c646e00	0.013942242
120	0x3daebc03	0.08531954
121	0xbd1d356f	-0.038381036
122	0x3d8456d7	0.06461876
123	0xbc1eff36	-0.009704402
124	0xbcb44a90	-0.02200821
125	0xbcd8bab6	-0.026456218
126	0xbd824a1f	-0.06361794
127	0x3d9ce177	0.076601915
128	0xbc64f8b8	-0.013975315
129	0x3d1fedde	0.039045207
130	0xbcc23b44	-0.0237099
131	0x3c187d78	0.009307258
132	0xbda21c14	-0.07915512
133	0xbd2dd462	-0.042438872
134	0xbdaaed3c	-0.0834603
135	0x3cac43ec	0.021028481
136	0xbcb68cc8	-0.022283927
137	0xbd9e8439	-0.07740063
138	0x3d6cf5fa	0.05785177
139	0xbcb4bf68	-0.022063926
140	0x3aaf7540	0.0013386384
141	0xbd2762ce	-0.040865712
142	0x3d303582	0.04301978
143	0x39f91e00	0.00047515333
144	0xbd82092f	-0.06349408
145	0x3d9114d1	0.070840485
146	0x3d16262a	0.03665749
147	0xbd9fa9d1	-0.07796062
148	0x3d79083e	0.060798876
149	0x3c714cf0	0.014727816
150	0x3d0402f4	0.03222938
151	0x3ad67740	0.0016362444
152	0xbc02b570	-0.007977828
153	0x3dace0b3	0.084412955
154	0xbd5b57d0	-0.05355054
155	0xb9970200	-0.00028802454
156	0x3d2d031e	0.0422393
157	0x3d79e522	0.061009534
158	0xbcec7128	-0.02886255
159	0x3d52980a	0.051414527
160	0xbdb2484d	-0.087051965
161	0x3d076032	0.033050723
162	0x3bce6db0	0.006299697
163	0xbcc30bdc	-0.023809366
164	0x3d985af7	0.07439225
165	0xbdb28ae8	-0.087179005
166	0x3d3bf16e	0.045884542
167	0xbd19b4f5	-0.03752609
168	0x3d427696	0.047476374
169	0x3a5c4f80	0.00084041804
170	0x3da87557	0.08225506
171	0x3d99b59f	0.075053446
172	0x3d2a28ea	0.041542925
173	0xb9f82c00	-0.0004733503
174	0xbc702d00	-0.014659166
175	0x3d4805b2	0.048833556
176	0x3d51b62a	0.051199116
177	0x3d84a719	0.06477184
178	0x3d0112a8	0.031511933
179	0x3d56cb2e	0.05243986
180	0x3dae911b	0.085237704
181	0xbce7431c	-0.028230242
182	0x3c8b46cc	0.017001532
183	0xbb020760	-0.0019840822
184	0x3d900541	0.07032252
185	0x3d28dfa6	0.041228913
186	0xbc85ee00	-0.016348839
187	0xbc893178	-0.016747221
188	0x3d72cc6e	0.05927699
189	0x3d2328fe	0.039834015
190	0x3d8efaff	0.069814675
191	0x3d2cbb86	0.042171024
192	0xbd263aa0	-0.040583253
193	0xbc50eaa0	-0.012751251
194	0xbc464f90	-0.01210393
195	0x3ba0e7b0	0.004910432
196	0xbd621513	-0.05519588
197	0x3dad6451	0.084663995
198	0x3d01d1c0	0.031694174
199	0xbc81be6c	-0.01583787
200	0xba8604c0	-0.0010224804
201	0x3d8dbb47	0.06920486
202	0x3d41e472	0.047337003
203	0xbd8a24eb	-0.06745323
204	0x3d099574	0.033589795
205	0x3917be00	0.00014471263
206	0xbd3ab202	-0.045579918
207	0x3d83716d	0.064181186
208	0x3d5d8472	0.054081388
209	0x3bd04480	0.006355822
210	0xbd5c923e	-0.053850405
211	0x3db4bfb7	0.08825629
212	0x3d020592	0.031743594
213	0x3db1abfd	0.08675382
214	0x3cec4618	0.028842017
215	0x3c2729a0	0.010202795
216	0x3d821f5f	0.0635364
217	0xbd4efa1b	-0.050531488
218	0x3da48ab9	0.08034272
219	0x3d8a9f05	0.06768612
220	0x3d04b656	0.03240045
221	0x3c6be1a0	0.014397055
222	0xbda7741b	-0.08176442
223	0x3cb5bc50	0.022184521
224	0x3d80be09	0.06286246
225	0xbd0c8086	-0.034302257
226	0xbd19d647	-0.037557866
227	0xbda41c72	-0.08013238
228	0xbd61f317	-0.05516347
229	0x3d43438a	0.047671832
230	0x3d1a0c26	0.037609242
231	0xbda323c8	-0.07965809
232	0xbcac3e00	-0.021025658
233	0x3ca6a364	0.020341583
234	0x3d88bcf3	0.06676664
235	0xbc4622b8	-0.0120932385
236	0xbd12ac82	-0.035809048
237	0x3d60ded2	0.054899998
238	0xbc8e5c80	-0.017378092
239	0xbd894b94	-0.067038685
240	0xbd3ccad9	-0.046091888
241	0x3bed19c0	0.0072357357
242	0xbd193b91	-0.037410323
243	0x3d83c935	0.064348616
244	0x3d03b27c	0.032152638
245	0x3ad27280	0.0016055852
246	0xbcea4636	-0.028597932
247	0xbd2a1c5a	-0.041530944
248	0x3db3d2c7	0.08780437
249	0x3d619f12	0.055083342
250	0xbcd7b15a	-0.026329685
251	0xbd550dcc	-0.05201511
252	0xbd7d5386	-0.061847232
253	0xbd0e8ecf	-0.03480416
254	0x3c50bb78	0.0127400085
255	0x3d43c3f2	0.04779429

out.bias f4 [220]
0	0xbd6683f0	-0.05627817
1	0x3d0f4c7a	0.034985043
2	0xbd19aa92	-0.037516184
3	0x3c86cd0c	0.016455196
4	0xbd1c94e7	-0.03822794
5	0xbc1e0280	-0.009644151
6	0x3d6f3172	0.058396764
7	0x3d25959e	0.04042589
8	0xbd7924ca	-0.0608261
9	0xbda0e644	-0.0785642
10	0xbd9c1c56	-0.07622592
11	0x3c715038	0.014728598
12	0x3dadf799	0.08494491
13	0x3d9c3e4d	0.076290704
14	0xbd9787c4	-0.07398942
15	0xbd8cc77a	-0.06873985
16	0x3d56b87a	0.052422024
17	0x3cef75f4	0.02923105
18	0x3d00a0f8	0.03140351
19	0x3d993090	0.07479966
20	0xbd201017	-0.039077844
21	0x3d3a5c9e	0.045498483
22	0x3d4fe0de	0.05075156
23	0x3d9e793b	0.077379666
24	0x3d9fa59d	0.0779526
25	0xbd43fec3	-0.04785038
26	0xbc3b4a78	-0.011431329
27	0xbd1bb4db	-0.038014274
28	0x3d56ebf2	0.05247111
29	0xbdbcc27b	-0.09216782
30	0xbd387bd9	-0.045039985
31	0xbd60f880	-0.054924488
32	0x3d78c0d6	0.060730778
33	0x3d22c536	0.039738856
34	0xbd2b4f07	-0.041823413
35	0x3d1e56de	0.03865706
36	0xbd7019aa	-0.058618225
37	0x3dace5df	0.08442282
38	0xbda2ac45	-0.07943014
39	0x3d0d7fd0	0.03454572
40	0x3d11b625	0.035574097
41	0xbc2ef0c8	-0.010677524
42	0xbdac59ec	-0.08415589
43	0x3daeba79	0.085316606
44	0x3d9c939c	0.07645342
45	0x3d9eaca1	0.0774777
46	0xbc8bad50	-0.017050415
47	0x3dad44bd	0.084603764
48	0x3d60bd76	0.054868184
49	0xbd050736	-0.03247758
50	0x3d40358e	0.046926074
51	0x3d98bb24	0.07457569
52	0xbccb16cc	-0.024791144
53	0x3d00bd4e	0.031430535
54	0x3be19260	0.0068839043
55	0xbc5ad730	-0.013356969
56	0xbdabf217	-0.08395784
57	0xbc054c16	-0.008135816
58	0xbcda7820	-0.026668608
59	0x3d926f61	0.0715015
60	0xbd43961f	-0.04775059
61	0xbd4a7038	-0.049423426
62	0xbc3b1a70	-0.011419877
63	0x3d3ef44a	0.04661969
64	0xbc010aef	-0.007876142
65	0xbd52a577	-0.05142733
66	0x3d5b6c6a	0.05357019
67	0xbc18a19e	-0.009315876
68	0x3b636d48	0.0034702588
69	0xbd2ad5c7	-0.04170778
70	0x3d896ee1	0.067106016
71	0x3d16b45e	0.036793105
72	0xbbe353e0	-0.006937489
73	0xbcc2d548	-0.023783341
74	0x3da0df6d	0.07855115
75	0xbd3e177c	-0.046409115
76	0x3c4d1760	0.01251778
77	0x3d58d71e	0.052939527
78	0xbd940b6e	-0.072287425
79	0x3d22a11e	0.039704435
80	0xbb9d5d6a	-0.0048023956
81	0x3d569512	0.05238826
82	0xbc741128	-0.0148966685
83	0x3c99b707	0.018764032
84	0x3d73794e	0.059441857
85	0xbba55700	-0.0050457716
86	0x3d8abca7	0.06774264
87	0x3ca6389c	0.020290665
88	0x3d9d12c5	0.07669596
89	0x3c98a3a0	0.01863271
90	0xbd0ad617	-0.03389558
91	0x3ccb84b0	0.024843544
92	0xbd752d15	-0.059857447
93	0xbce989ec	-0.02850815
94	0x3bf0bdd0	0.007346846
95	0xbc33e4b6	-0.010979822
96	0xbc2e33b8	-0.010632448
97	0x3c01e520	0.007928163
98	0xbd251d55	-0.040311176
99	0xbd16ae8b	-0.03678755
100	0xbbc4c450	-0.0060048476
101	0xbc35f396	-0.011105439
102	0xbd8a0e30	-0.06740987
103	0xbcf3ced0	-0.029761702
104	0x3d5b1d1a	0.05349455
105	0xbd8d295a	-0.06892653
106	0x3ca14af7	0.019689066
107	0x3cd8a880	0.026447535
108	0xbd958aa1	-0.07301832
109	0x3c0089c0	0.007845342
110	0x3c3eefb0	0.011653826
111	0x3da75b27	0.08171683
112	0xbcf13bb8	-0.029447421
113	0x3d909f6b	0.070616566
114	0x3d374126	0.044739865
115	0x3b1f9f7c	0.0024356535
116	0x3cf63ab8	0.030057296
117	0x3cd34e2c	0.025794111
118	0x3cc278cd	0.023739243
119	0xbccae9b4	-0.024769641
120	0xbc419610	-0.011815563
121	0x3cbd6fdb	0.023124626
122	0x3d8da5dd	0.069164015
123	0xbd6ecf67	-0.058303263
124	0xbd6f5008	-0.058425933
125	0x3d68d202	0.056840904
126	0xbd9c6d9f	-0.07638096
127	0xbd9afc60	-0.07567668
128	0xbcee304a	-0.02907576
129	0xbd604af8	-0.054758996
130	0x3d7c7142	0.06163145
131	0x3d9eb56f	0.077494495
132	0x3c19efe8	0.009395577
133	0xbdaec8bf	-0.08534383
134	0x3d9fad02	0.077966705
135	0xbda326a0	-0.079663515
136	0xbcf7e6d6	-0.030261438
137	0xbdaa455f	-0.08314013
138	0x3c3d340a	0.011548052
139	0xbd7c6864	-0.061622992
140	0xbd02113d	-0.03175472
141	0xbbed5790	-0.0072431043
142	0xbc77aa90	-0.015116349
143	0xbcdc1e9e	-0.026870068
144	0x3d8285e2	0.06373192
145	0xbd04cbf8	-0.032421082
146	0x3c25f3a0	0.0101288855
147	0x3cd2d520	0.025736392
148	0x3c3be898	0.011469029
149	0x3d028c46	0.031872056
150	0x3da37f93	0.07983317
151	0xbda1d0d3	-0.07901158
152	0xbd0d4b73	-0.034495782
153	0x3c83ca40	0.016087651
154	0x3d794e86	0.0608659
155	0x3d8a350f	0.067484014
156	0x3d2a8322	0.041628964
157	0xbd8c6361	-0.068548925
158	0xbd32bd97	-0.04363784
159	0xbccebc60	-0.025236309
160	0x3d1c3352	0.03813488
161	0x3d319b02	0.043360718
162	0xbc16f150	-0.009212807
163	0x3ce52818	0.02797322
164	0xbc8255d4	-0.015910067
165	0xbcfddf2e	-0.03099021
166	0xbc434a8c	-0.011919629
167	0x3d03ca0e	0.032175116
168	0xbc81e4b5	-0.015856126
169	0xbd5a0aa8	-0.05323282
170	0x3c4382d8	0.011933051
171	0x3d674a59	0.056467388
172	0xbc4361b8	-0.011925153
173	0x3d7555c6	0.059896253
174	0xbd59dbfc	-0.05318831
175	0x3d57f63a	0.052725054
176	0x3d71cc22	0.059032567
177	0x3d9aa55f	0.07551073
178	0x3d7f7a4a	0.062372483
179	0x3d0ff2c5	0.035143632
180	0x3d23be5e	0.03997647
181	0xbda9aeaf	-0.082852714
182	0x3d028f63	0.031875025
183	0x3d10384c	0.03520994
184	0x3cead5e4	0.028666444
185	0xbd839cc1	-0.06426383
186	0xbcf5101a	-0.029914904
187	0xbd9b2e88	-0.075772345
188	0xbd0e4cd3	-0.034741234
189	0x3d32864c	0.043585107
190	0x3cfa4e98	0.030555055
191	0x3d7bbb9a	0.061458208
192	0xbd303d93	-0.04302747
193	0xbc96db04	-0.018414982
194	0x3c9a9a98	0.018872544
195	0xbb993a30	-0.004676126
196	0xbd5620c6	-0.05227735
197	0xbd8d8ea6	-0.06911974
198	0xb98ee500	-0.0002725497
199	0xbdadbc59	-0.0848319
200	0xbd7c14c0	-0.061543226
201	0x3d916519	0.07099361
202	0xbb871802	-0.004122735
203	0x3cd403dc	0.025880747
204	0x3d796a32	0.06089229
205	0xbc418178	-0.011810653
206	0x3ca84540	0.020540833
207	0xbd52f9b6	-0.051507674
208	0x3d069a60	0.032862067
209	0x3d96d2b1	0.07364405
210	0x3d911739	0.070845075
211	0x3bf2940e	0.0074029034
212	0x3c7d0c8b	0.015444885
213	0x3d8118dd	0.063035704
214	0xbc31ce18	-0.010852359
215	0xbcf634de	-0.030054506
216	0x3d63a7e6	0.055580042
217	0x3da399d9	0.079883285
218	0x3c00e6e0	0.007867545
219	0x3ba54570	0.005043678
