player_archetype_nn.pth (torch, 60992 bytes, 6 tensors)

fc1.weight f4 [64, 2]
0.016583443 -0.074943185 -0.14789158 0.07725811 0.7029374 0.23748052 0.38257426 -0.6633384
0.43230432 -0.40629905 -0.23464221 0.6771634 -0.25621828 -0.4544467 0.48084825 0.6482499
-0.49401054 0.15816045 -0.51750803 -0.39113852 0.32604045 0.33543593 0.6362094 0.18373251
-0.6985902 -0.07314706 0.5054259 0.27220058 0.5600031 -0.48510247 -0.3408032 0.253026
0.55156046 -0.46567857 0.26723337 -0.37995696 0.5109444 0.15334904 0.50187594 0.5939314
0.39473528 0.44029802 -0.43176606 0.2123313 0.35696346 -0.096252024 -0.05644679 0.220074
0.1386177 0.6043684 0.64258116 0.27443033 -0.65207106 0.4455052 0.07767403 0.3983814
-0.6324738 0.3260278 0.63410777 -0.09727889 -0.3825392 0.4577654 0.20821041 -0.3208368
-0.33960083 0.57599276 -0.6208255 0.26221192 -0.51019233 0.3467384 -0.43434602 -0.006866634
0.3527364 0.49209243 0.009328723 0.0101723075 0.14865428 0.021953523 0.5826921 -0.08097768
0.1434552 0.563176 -0.36295077 0.10499734 0.080070436 -0.36537826 0.139319 0.11448103
0.7067129 0.31171256 -0.021037161 -0.22501695 0.07104272 0.1798209 -0.5262742 0.35897368
0.49537462 0.3104071 0.4295947 0.6511094 -0.6101305 -0.16521269 -0.3173984 -0.6201642
0.19487715 0.4936487 0.4815852 -0.32616964 -0.2970831 0.6492198 -0.37718353 0.06376588
-0.4328295 0.6809531 -0.37487733 -0.32550347 0.33099955 -0.4359947 -0.3692133 -0.30224583
-0.4272941 -0.3215523 -0.6600457 0.68047065 -0.07746869 0.5553561 0.556732 -0.015227854
00000000: 00da 873c d07b 99bd e470 17be 8039 9e3d
00000010: b5f3 333f 182e 733e c6e0 c33e 8cd0 29bf
00000020: fe56 dd3e 6e06 d0be 0c46 70be 955a 2d3f
00000030: 0b2f 83be 3dad e8be be31 f63e b5f3 253f
00000040: f3ee fcbe d0f4 213e 687b 04bf 4f43 c8be
00000050: c6ee a63e 42be ab3e 9fde 223f 6024 3c3e
00000060: cfd6 32bf 20ce 95bd 9763 013f e05d 8b3e
00000070: 5d5c 0f3f 5a5f f8be c27d aebe a08c 813e
00000080: 1133 0d3f 6c6d eebe d0d2 883e b889 c2be
00000090: 41cd 023f 8807 1d3e f17a 003f e30b 183f
000000a0: be1a ca3e be6e e13e 7110 ddbe 606d 593e
000000b0: eac3 b63e c81f c5bd c034 67bd 145b 613e
000000c0: ccf1 0d3e e3b7 1a3f 3380 243f 2282 8c3e
000000d0: 21ee 26bf 4219 e43e 9013 9f3d a6f8 cb3e
000000e0: cee9 21bf 1eed a63e e354 223f 283a c7bd
000000f0: 2edc c3be 3a60 ea3e 1c35 553e b944 a4be
00000100: 29e0 adbe 4374 133f 6cee 1ebf a440 863e
00000110: f79b 02bf b287 b13e 9a62 debe 8001 e1bb
00000120: de99 b43e 8af3 fb3e 80d7 183c c0a9 263c
00000130: d438 183e e0d7 b33c 4f2b 153f a0d7 a5bd
00000140: ece5 123e 4d2c 103f afd4 b9be d808 d73d
00000150: f8fb a33d dc12 bbbe a4a9 0e3e 0875 ea3d
00000160: 23eb 343f ca98 9f3e 2056 acbc d86a 66be
00000170: d87e 913d f822 383e e8b9 06bf 66cb b73e
00000180: bea1 fd3e aeed 9e3e d6f3 db3e 1baf 263f
00000190: 8331 1cbf 842d 29be 0b82 a2be 15c3 1ebf
000001a0: e08d 473e 86bf fc3e 5692 f63e b5ff a6be
000001b0: 471b 98be 4533 263f 331e c1be b097 823d
000001c0: d49b ddbe f152 2e3f ecef bfbe 64a8 a6be
000001d0: c678 a93e b33a dfbe 8709 bdbe f7bf 9abe
000001e0: 4bc6 dabe 81a2 a4be c1f8 28bf 5333 2e3f
000001f0: e8a7 9ebd d12b 0e3f fd85 0e3f 407e 79bc

fc1.bias f4 [64]
-0.7018479 -0.53128546 -0.33752358 0.50037307 -0.2958654 -0.28089526 0.67975897 0.51127523
-0.17079538 -0.0057394505 -0.19439137 0.15541524 0.063194335 0.6195983 0.22291052 0.2878943
-0.2166734 -0.29170245 0.15298808 0.56501585 -0.022085428 0.10242486 0.44406897 0.5710195
0.10595423 -0.051209748 0.065292954 0.40006083 0.6982679 0.21671486 -0.5270192 -0.49077314
-0.5236684 -0.08995342 -0.37386596 0.51031905 -0.0026715398 -0.5080517 -0.4798798 -0.605256
-0.03401661 -0.07107121 0.55160874 0.27386945 0.37827104 0.59226435 -0.6889431 -0.65143645
-0.24551138 0.14931488 -0.4142666 0.19609809 0.63274807 0.5912774 0.3295111 -0.24906251
0.06496501 -0.28194782 -0.6771423 -0.4075865 0.00590384 0.23225063 -0.08681905 0.44660753
00000000: 4eac 33bf 5302 08bf e4cf acbe 7318 003f
00000010: ab7b 97be 81d1 8fbe af04 2e3f efe2 023f
00000020: fce4 2ebe 0012 bcbb 880e 47be 2c25 1f3e
00000030: 086c 813d ff9d 1e3f a842 643e e266 933e
00000040: a2df 5dbe 065a 95be e8a8 1c3e e1a4 103f
00000050: 80ec b4bc 20c4 d13d 025d e33e 552e 123f
00000060: 88fe d83d 50c1 51bd 50b8 853d c6d4 cc3e
00000070: afc1 323f 80ea 5d3e bbea 06bf 9e46 fbbe
00000080: 220f 06bf 8039 b8bd 5c6b bfbe 45a4 023f
00000090: 0015 2fbb ad0f 02bf ceb2 f5be 0ff2 1abf
000000a0: 0055 0bbd c88d 91bd 3b36 0d3f 9e38 8c3e
000000b0: beac c13e a39e 173f 935e 30bf 8ac4 26bf
000000c0: 5667 7bbe 00e6 183e c01a d4be f0cd 483e
000000d0: c7fb 213f f55d 173f aeb5 a83e 3e0a 7fbe
000000e0: 600c 853d 775b 90be 3359 2dbf 2daf d0be
000000f0: 0075 c13b 1cd3 6d3e 30ce b1bd bea9 e43e

fc2.weight f4 [128, 64]
-0.052756727 -0.06376113 0.09086798 0.117467746 -0.011418909 -0.0055162907 0.035699412 0.12396276
-0.08468233 0.067794934 0.0026466846 0.05005771 0.026085302 -0.005700171 -0.07586095 -0.04342644
-0.044794664 -0.0389494 0.072938055 0.05866413 0.029971957 -0.009181887 0.112203345 -0.111623675
-0.015229747 0.038212955 -0.029563546 0.044675708 -0.043639287 -0.099549964 -0.07490784 0.119353175
0.009836465 0.07365191 0.08598985 -0.01755695 -0.0475661 -0.08763562 -0.09218645 -0.011032149
0.03303346 0.0018161982 0.109510615 0.07640961 0.031154096 -0.03601569 0.041484118 -0.0012848824
-0.047042117 0.103419945 -0.006195694 -0.06466207 0.021990195 -0.07227646 0.0922737 0.0973219
0.11035274 -0.03271474 -0.02829872 -0.03722827 0.063860476 -0.010547623 -0.11052461 0.04616569
-0.007895112 -0.0998925 -0.097398564 -0.054234922 -0.07749559 -0.040419802 -0.052171543 -0.0475014
0.036162272 -0.12389091 0.039482325 -0.06231278 -0.030776724 0.09693141 -0.04285322 -0.05155903
-0.042560443 0.0009007007 -0.021252304 0.010006726 -0.07966994 -0.09379332 -0.11291504 0.043380514
-0.08701222 -0.0994924 -0.023727506 -0.024481297 -0.096606836 -0.011991084 0.030236617 -0.03811115
-0.06114666 0.07668015 0.030095562 -0.11032218 0.05165091 0.09556934 0.019107878 0.10284437
-0.034957364 -0.12134293 -0.009281382 -0.011442393 -0.027305007 0.09275982 -0.027094617 -0.002339393
0.09400031 -0.10484451 -0.08423197 -0.09198581 -0.08269349 0.04362595 -0.052107245 0.11239447
0.014595419 -0.008670583 0.059201747 0.013658926 -0.10056996 -0.080376446 -0.032025978 0.036103085
-0.067336366 -0.04677725 0.014544085 0.053376213 -0.057839796 -0.047349587 -0.10447781 -0.03535649
0.09576033 -0.03848119 0.06271419 -0.095399335 0.053119436 -0.103501305 0.074898824 0.09651546
-0.043156296 0.09262021 -0.06443612 -0.06234604 -0.029264212 -0.06655358 -0.0037136674 0.07782221
0.10002285 -0.07230571 0.06974456 -0.0972694 0.10214637 -0.003688082 0.06495106 -0.054820046
-0.067751795 -0.12117319 -0.024855852 -0.07911031 0.051893458 0.039246112 0.038045645 0.025629327
-0.025711179 0.071960896 -0.12159595 0.0864663 -0.08548117 -0.04311359 -0.08478716 0.09962906
-0.012478292 0.11828515 0.08651473 -0.11053425 -0.051250532 0.107292905 -0.023604497 -0.057380825
0.009786084 -0.07021201 0.09000462 0.05283311 0.122017056 0.046949267 0.10947934 -0.1073242
-0.0965336 -0.08888839 0.062056586 0.08622345 0.066374496 -0.09594302 0.06273292 0.026955679
-0.07895464 -0.10086395 -0.09563449 0.047455966 0.0941025 -0.094989404 0.05075775 0.034615397
-0.07124211 -0.07103582 -0.10083276 0.02984488 0.082182705 0.0028964877 0.008531526 0.06739688
-0.012100384 -0.04422784 -0.010006145 -0.059877872 0.10653581 0.04130149 -0.085664466 -0.04366833
-0.0932422 0.017006442 0.08175677 0.045903563 0.09657936 0.08209488 -0.0054612607 -0.028687477
0.0945774 0.054119587 -0.11656092 0.09276058 -0.025555715 0.10660894 0.09788494 0.07373655
0.11601615 -0.013538659 -0.07097937 -0.11794095 0.10423456 0.11629686 0.07099162 0.10283016
-0.116039425 -0.082590595 0.0477591 -0.10279472 -0.025921345 0.10708895 -0.028063253 0.1029651
00000000: 7017 58bd 3295 82bd fe18 ba3d ee92 f03d
00000010: 6016 3bbc 00c2 b4bb 8c39 123d 30e0 fd3d
00000020: ee6d adbd 12d8 8a3d 0074 2d3b 5009 4d3d
00000030: d8b0 d53c 80c8 babb fc5c 9bbd ecdf 31bd
00000040: 9c7a 37bd 6889 1fbd 8c60 953d cc49 703d
00000050: c087 f53c a06f 16bc deca e53d f49a e4bd
00000060: 3086 79bc 3085 1c3d 402f f2bc e0fd 363d
00000070: 1cbf 32bd dae0 cbbd 4869 99bd 706f f43d
00000080: 2029 213c d0d6 963d 721b b03d 98d3 8fbc
00000090: acd4 42bd 4e7a b3bd 40cc bcbd 30c0 34bc
000000a0: 184e 073d 800d ee3a 1a47 e03d a47c 9c3d
000000b0: e036 ff3c 3085 13bd 40eb 293d 8069 a8ba
000000c0: 3caf 40bd d6cd d33d 4005 cbbb 8c6d 84bd
000000d0: c824 b43c ae05 94bd fef9 bc3d b450 c73d
000000e0: 9e00 e23d e4ff 05bd b8d2 e7bc ac7c 18bd
000000f0: 48c9 823d f0cf 2cbc ba5a e2bd 3c18 3d3d
00000100: 805a 01bc 7094 ccbd e678 c7bd 7025 5ebd
00000110: 02b6 9ebd 3c8f 25bd d4b1 55bd d490 42bd
00000120: e41e 143d 84ba fdbd 38b8 213d b03b 7fbd
00000130: 781f fcbc fa83 c63d dc86 2fbd 902f 53bd
00000140: dc53 2ebd 001d 6c3a 5019 aebc 40f3 233c
00000150: fe29 a3bd b616 c0bd 0040 e7bd c4af 313d
00000160: 7633 b2bd acc2 cbbd 3060 c2bc 008d c8bc
00000170: ced9 c5bd 4076 44bc c8b2 f73c 701a 1cbd
00000180: ec74 7abd 7c0a 9d3d f88a f63c 98f0 e1bd
00000190: e88f 533d dcb9 c33d 2088 9c3c 12a0 d23d
000001a0: 742f 0fbd a482 f8bd f010 18bc e078 3bbc
000001b0: c0ae dfbc dcf8 bd3d 88f5 ddbc 8050 19bb
000001c0: 3c83 c03d b8b8 d6bd d081 acbd 0e63 bcbd
000001d0: 345b a9bd 20b1 323d 686e 55bd 122f e63d
000001e0: a021 6f3c 100f 0ebc 887d 723d b0c9 5f3c
000001f0: a0f7 cdbd 689c a4bd ac2d 03bd d4e0 133d
00000200: a6e7 89bd 8099 3fbd 504a 6e3c 04a1 5a3d
00000210: 6ce9 6cbd a4f1 41bd 76f8 d5bd f8d1 10bd
00000220: fe1d c43d 749e 1dbd 4c70 803d ba60 c3bd
00000230: c493 593d 7ef8 d3bd 8e64 993d e6a9 c53d
00000240: a8c4 30bd aaaf bd3d 16f7 83bd 905e 7fbd
00000250: 80bb efbc 3e4d 88bd 0061 73bb 4061 9f3d
00000260: c8d8 cc3d 0415 94bd 3cd6 8e3d 2e35 c7bd
00000270: 1e32 d13d c0b3 71bb 1005 853d fc8a 60bd
00000280: 74c1 8abd a629 f8bd 809e cbbc 9604 a2bd
00000290: 3c8e 543d 88c0 203d c0d5 1b3d 98f4 d13c
000002a0: 40a0 d2bc 3c60 933d 4c07 f9bd 3e15 b13d
000002b0: c010 afbd e097 30bd e4a4 adbd 520a cc3d
000002c0: c071 4cbc 7c3f f23d a22e b13d c85f e2bd
000002d0: 14ec 51bd 62bc db3d 385e c1bc 2808 6bbd
000002e0: d055 203c 50cb 8fbd 5854 b83d 8867 583d
000002f0: 14e4 f93d e04d 403d b436 e03d cacc dbbd
00000300: 68b3 c5bd 1e0b b6bd 0c2f 7e3d ec95 b03d
00000310: 5aef 873d c67d c4bd 1e7a 803d 28d2 dc3c
00000320: f8b2 a1bd c291 cebd 04dc c3bd 3061 423d
00000330: d0b8 c03d ce89 c2bd 5ce7 4f3d e0c8 0d3d
00000340: 62e7 91bd 3a7b 91bd 6881 cebd 407d f43c
00000350: 684f a83d 00d3 3d3b d0c7 0b3c 6007 8a3d
00000360: b040 46bc 4028 35bd d0f0 23bc 8042 75bd
00000370: 722f da3d c02b 293d da70 afbd 90dd 32bd
00000380: c4f5 bebd 1851 8b3c 1870 a73d 6005 3c3d
00000390: 66cb c53d 5c21 a83d 60f4 b2bb 0002 ebbc
000003a0: ccb1 c13d 80ac 5d3d 7eb7 eebd 42f9 bd3d
000003b0: 385a d1bc ca55 da3d e677 c83d 3003 973d
000003c0: e099 ed3d 40d1 5dbc a25d 91bd 068b f1bd
000003d0: ee78 d53d 0c2d ee3d 0e64 913d 9e98 d23d
000003e0: 14a6 edbd 4225 a9bd 0c9f 433d 0a86 d2bd
000003f0: 0059 d4bc 7451 db3d e8e4 e5bc 5edf d23d

fc2.bias f4 [128]
0.053018585 -0.05121839 0.021296948 0.009764671 -0.044419974 0.067398116 -0.0781274 -0.0050575733
-0.11644083 0.021530807 0.10387573 0.07158396 -0.03014937 -0.00415124 0.109871954 0.04320529
0.07450198 0.07165806 -0.06519058 0.012534767 0.084267735 -0.038309246 -0.11535315 -0.027246743
0.07247825 0.05228232 0.01771672 -0.10495919 0.051799625 -0.020955399 -0.010340139 0.08529955
0.04286079 -0.0063681453 -0.06638937 0.07103151 0.09747648 -0.0682001 0.06458087 0.038201064
0.073309496 -0.04461132 0.07762423 -0.031356514 -0.094163686 -0.03696905 -0.12033364 0.0049716383
-0.07602604 -0.12082893 -0.1144851 -0.09154531 -0.058723688 0.07888442 -0.011659786 -0.047804832
0.10642572 0.04508421 0.05439706 0.0936078 -0.012847617 -0.09587233 0.04630083 -0.019204557
-0.08348231 -0.00992313 0.10902245 0.07420421 0.0021805465 -0.025435805 -0.012676343 -0.060156256
0.033202097 0.094443396 0.06596443 0.07875921 -0.0928234 -0.02085124 -0.104455784 0.0078077614
0.06600292 0.1014283 0.09654051 -0.110098824 0.056487277 0.010679409 0.05954741 0.080248356
0.043202803 0.09984054 -0.04577799 -0.021789104 -0.004922569 -0.036181703 -0.023845762 0.031004563
0.12175286 0.030244246 0.06503336 -0.107723475 0.074034765 0.11864677 -0.0035284907 -0.05392918
0.09314585 -0.09928912 -0.023713902 0.0890203 -0.08760534 -0.024896756 -0.039489537 -0.091282174
-0.023708537 0.07740155 0.026903585 0.11556131 0.08567388 0.12384914 0.09633891 -0.0325619
-0.05805409 0.07575348 -0.04416658 -0.08437395 -0.036189944 0.11277926 0.01139082 0.06464912
00000000: 042a 593d 60ca 51bd f076 ae3c 00fc 1f3c
00000010: b8f1 35bd 0608 8a3d 4201 a0bd 00ba a5bb
00000020: 8878 eebd 6061 b03c ccbc d43d 9c9a 923d
00000030: d0fb f6bc 2007 88bb 8c04 e13d 08f8 303d
00000040: 7e94 983d 76c1 923d a482 85bd a05e 4d3c
00000050: 9094 ac3d 28ea 1cbd 463e ecbd 9034 dfbc
00000060: 7a6f 943d fc25 563d a822 913c d8f4 d6bd
00000070: d82b 543d a8aa abbc b069 29bc 88b1 ae3d
00000080: cc8e 2f3d e0ab d0bb 26f7 87bd f878 913d
00000090: c0a1 c73d 7eac 8bbd fa42 843d b878 1c3d
000000a0: 4a23 963d 5cba 36bd 74f9 9e3d b06f 00bd
000000b0: e4d8 c0bd dc6c 17bd 7c71 f6bd 20e9 a23b
000000c0: 8ab3 9bbd 2875 f7bd 2a77 eabd 1c7c bbbd
000000d0: 4088 70bd 288e a13d b008 3fbc 00cf 43bd
000000e0: baf5 d93d 38aa 383d 74cf 5e3d 72b5 bf3d
000000f0: d07e 52bc b658 c4bd f0a5 3d3d e052 9dbc
00000100: c6f8 aabd a094 22bc 2a47 df3d 60f8 973d
00000110: 80e7 0e3b c05e d0bc 70b0 4fbc 6866 76bd
00000120: ecfe 073d 8a6b c13d 5c18 873d 824c a13d
00000130: 321a bebd 38d0 aabc eaec d5bd 40d8 ff3b
00000140: 8a2c 873d a4b9 cf3d 08b7 c53d 7e7b e1bd
00000150: 345f 673d b0f8 2e3c fce7 733d 4059 a43d
00000160: 6cf5 303d 3279 cc3d b481 3bbd 107f b2bc
00000170: 804d a1bb 4433 14bd 3058 c3bc 48fd fd3c
00000180: 9059 f93d c8c2 f73c 3630 853d 209e dcbd
00000190: 8a9f 973d 14fd f23d 403e 67bb d8e4 5cbd
000001a0: 40c3 be3d 1858 cbbd a843 c2bc 4650 b63d
000001b0: 6e6a b3bd 48f4 cbbc c8bf 21bd 26f2 babd
000001c0: 6838 c2bc b484 9e3d e864 dc3c 68ab ec3d
000001d0: ca75 af3d 9ea4 fd3d 564d c53d a05f 05bd
000001e0: 20ca 6dbd a424 9b3d 04e8 34bd 40cc acbd
000001f0: e83b 14bd d0f8 e63d 90a0 3a3c c266 843d

out.weight f4 [47, 128]
0.0078109875 -0.057667047 -0.046785057 -0.024343282 0.08497984 0.06850735 0.06896747 0.052813403
-0.06305139 0.08246834 -0.07729227 -0.041907065 -0.020831965 -0.05685339 0.058935545 0.07684677
0.022479147 -0.075511724 0.010451756 -0.060321346 0.049672 -0.037457693 0.06408528 0.015431605
0.029672623 0.022528045 -0.011913374 0.06619651 -0.08085889 0.043259226 0.0044228137 0.017954938
0.047232173 0.010871761 -0.046669185 -0.015238099 0.02321802 -0.049980123 -0.033272743 -0.01256603
-0.011212915 -0.060357176 0.041086964 0.054943033 0.063552804 0.042646892 0.020763665 0.027971439
0.08164167 -0.051543202 0.066582896 0.0749828 -0.059258953 -0.019328766 0.03514733 -0.069606796
0.02978959 0.020296596 0.026751809 -0.044023152 0.016273312 -0.04233181 -0.0083467215 0.01911638
-0.032788444 0.08477331 0.052053384 0.05031196 0.028013684 -0.06761104 -0.004823275 0.05837228
0.016871259 0.017573014 0.005561553 0.011372708 0.060246117 -0.07419178 0.040414654 0.032698676
0.030930802 0.036808856 -0.057605892 0.06817999 0.055470698 -0.020606391 0.07940035 0.07990039
-0.06087324 0.047351725 -0.039329994 -0.02495084 0.0029391944 -0.04629828 -0.017868862 0.0048904046
-0.019066453 -0.073383 0.00010487437 0.013552606 0.026877828 -0.07130078 0.073831625 -0.012710974
0.06917686 -0.05713356 -0.02087602 -0.013252921 0.021880634 -0.05794213 0.0009812489 0.00846453
0.06802907 0.069289826 0.02999112 0.06892448 -0.0800474 0.017950974 -0.054215703 0.086636744
0.025821216 -0.03934287 0.042142354 0.05482786 0.014337786 0.024586767 -0.037037227 0.0054084063
0.02143237 -0.08540874 -0.028764054 0.05482381 -0.027405545 -0.064827405 0.05603487 0.07401482
-0.012201123 0.056928523 -0.004676521 -0.05868978 -0.07496763 -0.063805625 0.015533231 -0.00794971
-0.021355987 -0.05503193 -0.0452945 -0.046926606 0.014459908 -0.07889829 -0.05325782 -0.008616909
0.034755155 0.023211196 0.06854827 -0.05788704 -0.032610554 -0.036342457 -0.019036211 -0.041843716
-0.026299782 0.057363056 -0.05970355 -0.0026662424 -0.013668835 0.029311053 -0.022991233 -0.06979599
0.08302965 0.04775808 0.07051552 -0.012324594 0.08686366 -0.05323921 0.022047251 -0.02442988
-0.02241417 0.021177813 0.012155183 -0.047940176 -0.021384366 -0.01027514 -0.06616467 0.016304024
0.069822274 -0.06304833 -0.027213197 -0.0027851388 0.06525444 0.07008878 -0.06443724 -0.009658404
-0.036783196 -0.056281395 -0.051795166 -0.0144856945 0.03032367 -0.0618603 -0.043279555 -0.07360194
0.06453236 -0.076246805 0.0014140904 -0.08583387 0.06506077 0.011237457 -0.019992076 -0.058571
0.051220395 -0.03175962 0.04401534 0.032667592 -0.009559549 0.0010881126 0.03247209 -0.016545579
0.07221999 0.040976413 0.051634558 -0.08828444 0.007191561 -0.004576154 -0.035564847 -0.029835913
0.002478972 0.055944465 0.06523419 0.004714608 0.009635188 0.046947546 0.007589765 -0.06027571
-0.015052065 -0.008085638 -0.023178488 0.038508005 -0.08571202 0.072961606 -0.06843315 -0.07730053
0.08366475 0.020816274 -0.044388585 0.003599763 0.021649942 0.03438811 0.03699871 -0.08734815
0.015312098 0.027155213 -0.053287607 -0.06997422 -0.036175217 0.0053280964 0.045352437 0.0030651912
00000000: 50f3 ff3b 4834 6cbd b0a1 3fbd 906b c7bc
00000010: e909 ae3d 954d 8c3d d13e 8d3d de52 583d
00000020: 1621 81bd 29e5 a83d 694b 9ebd bea6 2bbd
00000030: cca7 aabc 1adf 68bd 6666 713d d761 9d3d
00000040: 3026 b83c e4a5 9abd d83d 2b3c 8413 77bd
00000050: de74 4b3d 3d6d 19bd 253f 833d d8d4 7c3c
00000060: 0014 f33c bc8c b83c 5030 43bc 0992 873d
00000070: 5999 a5bd 9630 313d 40ed 903b 3c16 933c
00000080: 8676 413d 781f 323c 3028 3fbd 38a9 79bc
00000090: b833 be3c f5b7 4cbd 0049 08bd c0e1 4dbc
000000a0: 60b6 37bc 1639 77bd ce4a 283d f20b 613d
000000b0: f927 823d 82ae 2e3d 9018 aa3c 5c24 e53c
000000c0: bf33 a73d f71e 53bd 9d5c 883d 9590 993d
000000d0: 84b9 72bd 5c57 9ebc a6f6 0f3d 028e 8ebd
000000e0: 4c09 f43c 0c45 a63c 9c26 db3c 9f51 34bd
000000f0: 9c4f 853c 1f64 2dbd b0c0 08bc f499 9c3c
00000100: 2d4d 06bd a19d ad3d ee35 553d ea13 4e3d
00000110: f47c e53c a877 8abd 900c 9ebb c617 6f3d
00000120: 9835 8a3c 48f5 8f3c b03d b63b 9854 3a3c
00000130: a2c4 763d dcf1 97bd d689 253d 0cef 053d
00000140: 9862 fd3c e2c4 163d 28f4 6bbd f3a1 8b3d
00000150: 3e35 633d bcce a8bc a79c a23d d1a2 a33d
00000160: 3856 79bd e2f3 413d 7d18 21bd b465 ccbc
00000170: 809f 403b 44a3 3dbd b861 92bc b03f a03b
00000180: 4031 9cbc d449 96bd 00f0 db38 c00b 5e3c
00000190: e42e dc3c 2506 92bd 0935 973d b041 50bc
000001a0: 99ac 8d3d e104 6abd 3004 abbc c822 59bc
000001b0: 043f b33c ba54 6dbd 409d 803a d0ae 0a3c
000001c0: d352 8b3d d3e7 8d3d f0af f53c 4728 8d3d
000001d0: e4ef a3bd ec0d 933c 4911 5ebd 9b6e b13d
000001e0: 0487 d33c fd25 21bd 769d 2c3d 2e93 603d
000001f0: 08e9 6a3c 306a c93c 59b4 17bd 0039 b13b
00000200: f092 af3c c7ea aebd 98a2 ebbc ee8e 603d
00000210: 9881 e0bc 3bc4 84bd d284 653d 1595 973d
00000220: 38e7 47bc e22d 693d 803d 99bb b264 70bd
00000230: a188 99bd 86ac 82bd 187f 7e3c 803f 02bc
00000240: c0f2 aebc 2969 61bd ba86 39bd 1d36 40bd
00000250: 40e9 6c3c 6d95 a1bd df24 5abd f02d 0dbc
00000260: 6c5b 0e3d 6825 be3c 0963 8c3d f61a 6dbd
00000270: a592 05bd d4db 14bd d4f1 9bbc 5164 2bbd
00000280: a472 d7bc 86f5 6a3d b68b 74bd 20bc 2ebb
00000290: 40f3 5fbc bc1d f03c 1c58 bcbc 33f1 8ebd
000002a0: 730b aa3d fa9d 433d 716a 903d 18ed 49bc
000002b0: 93e5 b13d 5c11 5abd 709c b43c 2c21 c8bc
000002c0: ec9d b7bc 187d ad3c 8826 473c eb5c 44bd
000002d0: 442e afbc 1059 28bc 5881 87bd 0490 853c
000002e0: fbfe 8e3d 7c1f 81bd 36ee debc e086 36bb
000002f0: 1fa4 853d b58a 8f3d acf7 83bd 483e 1ebc
00000300: faa9 16bd 5287 66bd 2b27 54bd 6855 6dbc
00000310: 5869 f83c 3a61 7dbd e745 31bd 9dbc 96bd
00000320: 8b29 843d 4927 9cbd 0059 b93a abc9 afbd
00000330: 953e 853d 501d 383c 6cc6 a3bc 25e8 6fbd
00000340: 7acc 513d 6016 02bd 6e49 343d 74ce 053d
00000350: a89f 1cbc 009f 8e3a 7401 053d 988a 87bc
00000360: 13e8 933d e2d6 273d c27e 533d 79ce b4bd
00000370: 30a7 eb3b 90f3 95bb 72ac 11bd 726a f4bc
00000380: 4076 223b 0626 653d 8199 853d 007d 9a3b
00000390: e8dc 1d3c 124c 403d 90b3 f83b aae3 76bd
000003a0: f09c 76bc a079 04bc d0e0 bdbc 92ba 1d3d
000003b0: c989 afbd e56c 953d ae26 8cbd be4f 9ebd
000003c0: 6d58 ab3d e486 aa3c ced0 35bd 00ea 6b3b
000003d0: 385b b13c 8cda 0c3d f68b 173d 96e3 b2bd
000003e0: 98df 7a3c 9c74 de3c 1b44 5abd a54e 8fbd
000003f0: 772c 14bd 5097 ae3b 7ac3 393d 60e1 483b

out.bias f4 [47]
0.024896331 0.07130847 0.030603081 -0.051144093 -0.086702496 0.067290805 0.04814688 0.025003143
0.06827303 -0.07266307 -0.030722775 -0.060305532 0.052398242 -0.03212243 0.054624163 0.08629597
0.063502915 -0.042291094 0.06784942 -0.034838025 0.009827077 -0.044677407 0.06310404 -0.0049518123
-0.07472907 0.031154595 -0.00045269728 -0.06365609 0.029603727 -0.0845998 0.009990118 -0.06525112
0.07493376 -0.012527011 0.013394177 -0.008098483 0.076454304 -0.07059361 -0.06730601 0.032741107
0.033815123 0.04126846 0.034213558 -0.031516813 -0.055507474 0.034336522 0.004605405
00000000: 64f3 cb3c 2d0a 923d 50b3 fa3c 787c 51bd
00000010: 1491 b1bd c3cf 893d aa35 453d 64d3 cc3c
00000020: bbd2 8b3d 60d0 94bd 54ae fbbc ef02 77bd
00000030: 8a9f 563d cf92 03bd 96bd 5f3d f1bb b03d
00000040: d10d 823d 6d39 2dbd a3f4 8a3d 51b2 0ebd
00000050: c001 213c a8ff 36bd b13c 813d d042 a2bb
00000060: 8e0b 99bd ec37 ff3c 0058 edb9 205e 82bd
00000070: 8483 f23c a942 adbd 98ad 233c 61a2 85bd
00000080: df76 993d 183e 4dbc 4073 5b3c 80af 04bc
00000090: 1394 9c3d 6293 90bd bcd7 89bd 8a1b 063d
000000a0: ba81 0a3d 1e09 293d 8423 0c3d c617 01bd
000000b0: ce5b 63bd 74a4 0c3d f0e8 963b
